hand-gesture-recognition-mediapipe/model/keypoint_classifier/keypoint_classifier.tflite (tflite, 6616 bytes, 6 tensors)

arith.constant f4 [5, 10]
00000000: 0b1f 94bf da2c 453f 1094 1cbf fdda 463f
00000010: f4d9 913f a1c9 fa3e 066c f8be e0d4 6dbf
00000020: 9314 90be 1e1b 493e 09c4 b33e 0022 9dbe
00000030: 35aa 003f e04b 883d 9a83 af3e 137f 45be
00000040: 49ad 7dbf d174 3c3f 82a3 06bf 039c 053f
00000050: 89c2 a1be cb4e 36bf 4f41 e73e 4a11 893d
00000060: 86a7 73bf 82de d23d 7232 a73f 2227 18bf
00000070: b5ec 81bf 6af3 1dbf 265a 86bf dff0 903f
00000080: 191b f9be 306a b23e a662 75bf b1eb febf
00000090: 3e4e b0be 6aee ff3e d1d6 a1bd 8f96 ddbf
000000a0: b317 2a3f a842 a53e d5f2 60bf fc2e 7abf
000000b0: d4bd 2bbf 0b10 01be 4de6 47bf 76a0 e1be
000000c0: 6182 113f 171f 393d
-1.1571974 0.77021563 -0.61163425 0.776779 1.1394639 0.48981956 -0.48519915 -0.92902946
-0.28140697 0.1963925 0.351105 -0.30690002 0.50259715 0.06655097 0.34280092 -0.19286756
-0.9909254 0.7361575 -0.52593243 0.5219118 -0.3159373 -0.7121398 0.45167014 0.06692751
-0.95177495 0.10296346 1.306227 -0.5943471 -1.0150362 -0.61699545 -1.0496261 1.1323508
-0.48653486 0.3484664 -0.9585365 -1.9915677 -0.34434694 0.49986583 -0.07902301 -1.7311572
0.6644241 0.32277417 -0.8787053 -0.9772794 -0.6708653 -0.12603776 -0.78085786 -0.44067734
0.5683957 0.045195665

arith.constant1 f4 [10, 20]
00000000: 5d13 bd3e 255e 52bb 0767 af3e 7567 1a3f
00000010: d54e a4be 4c9f 003f 3bde 6a3f ed15 503d
00000020: 2353 6f3f 7782 8b3f 3fa6 90bd fb79 10be
00000030: fe6a cfbd 2a02 2cbd 60a6 0dbe 836b 823e
00000040: e832 cd3e b752 1f3f 337a c63e 4409 85bd
00000050: 5d2a 65bd 1e32 1a3f 99db 443d 6867 99be
00000060: 91b5 9bbf dc06 2c3f 1260 52bd dd0d 34bf
00000070: 6769 6abe 9692 823e 668b 85bf af5c 11be
00000080: c5ee 493e 26c9 2a3f f877 fbbd 5c49 2cbf
00000090: 8e64 e6bb 6624 56be 338d 8abe bcc8 b03e
000000a0: c556 b63d 15ed ad3e dfed c2bc acff 983e
000000b0: 834d 04bf 2e19 013e 3400 de3e bc33 153f
000000c0: 289a ac3e 12ad 1a3e 70d4 1f3f 2916 1a3f
000000d0: 03c6 10bf 52ef 99be d424 b43e 98a7 10bf
000000e0: 2545 573e 4054 493e b2bd 193e 8666 0ebf
000000f0: e626 38bd c465 a73c 44ab 12be b06b c8bd
00000100: c78b 533f 4087 68bd ee4d 62bd 955d 8b3e
00000110: 2a6d 1abf 7d30 46bf 32a1 593f 1ec6 00bf
00000120: a7f3 e93e 90ca 13be 70eb 3c3f 68e9 533e
00000130: 9338 6cbd 75f7 dbbd 9e8c 0a3f 5855 073f
00000140: c163 9c3f 79dc 9dbe 9101 f1bc b909 093d
00000150: 310b 9bbe b418 71be 95ba e3be 128f b43e
00000160: 8755 2a3e 63f0 ef3d cd4e 263f 38e0 ed3e
00000170: ed59 523e a4ee d8bd deca 163c 24d9 043f
00000180: 1554 ae3a 464d 0d3d 5065 a5bd 5f72 e13c
00000190: b144 493f 797a 423f ebda 023f 678f 823e
000001a0: 3d37 343f ada3 6ebc cabb a3bd 8ead 433f
000001b0: 5a48 c6bd a7af 38bf 7b40 083f 4a65 383f
000001c0: 21ef 50bd c54c 953d 0fb4 08be 7708 503e
000001d0: 328e 743f f424 403f 3058 fa3e 4af5 24bc
000001e0: bc93 ddbe 9138 b23d 78aa 10bf c6a0 7bbe
000001f0: 470a c2be a6d5 15bf 1169 2e3e c31b 263e
00000200: 4d9c 8abe 0c0c acbe b118 16be f2a7 403e
00000210: 764b b4bf 1c11 ccbf 3e84 2d3e 23bc d03e
00000220: f6c6 893e 73b9 1abc 07d4 2d3e a041 ebbf
00000230: 6c5a 79be c407 8bbe d4ae 92bd 39eb 363f
00000240: 2ede 28be 711d 083f 412e 813e 2ff6 bf3e
00000250: 2ffe dabe ae16 f83e 40a7 2c3e d8ff 293d
00000260: 3f1f 793d 0116 383e 591b ce3e 9dad 59be
00000270: c312 a2bd 7c9d 7dbe a1d2 2ebf 2130 fd3d
00000280: 1926 8dbe 5f6e fabc 57f1 32bc 5903 3abf
00000290: 9872 113e 32d3 0f3f b38d 883e bc7d 783e
000002a0: 5c15 9c3e 85f6 af3e d98b aebf f2f8 313e
000002b0: d546 0b3f 8494 86bd dbea e7ba e70c 2a3f
000002c0: 1b20 913e 84cc 053e 269a 17bf 3b4b 073f
000002d0: 3a36 a03e 9997 613f adb2 7f3f 005a 573f
000002e0: a0ba 043f 0a85 c23d e64d 433f 1ce6 68be
000002f0: 5b33 2d3f 6976 923e 5669 d7be b038 e23e
00000300: 235e 823d 9121 093e da70 363d e43c 253f
00000310: 56f8 c83d ef54 643e cb4f 1c3f 8a13 ca3d
0.36928836 -0.0032099572 0.3425829 0.6031411 -0.32091394 0.5024307 0.91745347 0.05080216
0.9348623 1.089919 -0.07062959 -0.14109032 -0.10127829 -0.04199425 -0.13832998 0.2547265
0.400779 0.6223559 0.38765106 -0.06495908 -0.055948604 0.6023272 0.048060987 -0.29961705
-1.2164785 0.67197967 -0.05136115 -0.70333654 -0.2289177 0.2550246 -1.0433166 -0.14195512
0.1971999 0.6671318 -0.122787416 -0.6729944 -0.00703103 -0.20912322 -0.2706085 0.34528148
0.08903269 0.33969942 -0.023795066 0.29882562 -0.51680773 0.12607262 0.4335953 0.58282065
0.33711362 0.15105084 0.6243353 0.60190064 -0.5655214 -0.300654 0.35184348 -0.5650573
0.2102247 0.19661045 0.1501377 -0.5562519 -0.04495897 0.020434268 -0.14323145 -0.09786165
0.8263516 -0.05676961 -0.0552501 0.27219835 -0.6032282 -0.7741774 0.8501159 -0.503023
0.45693704 -0.1443274 0.7379675 0.20694506 -0.05767114 -0.10740558 0.54120815 0.528646
1.2217942 -0.3083227 -0.029419692 0.033456538 -0.30281976 -0.2354458 -0.44478288 0.35265404
0.16634189 0.11715772 0.6496399 0.46460128 0.20542116 -0.10592392 0.009203641 0.5189383
0.0013300205 0.03449752 -0.080759645 0.027520357 0.7862044 0.7596813 0.5111529 0.25500032
0.70396787 -0.014565391 -0.07994802 0.764367 -0.09681769 -0.72143024 0.5322339 0.72029555
-0.0510093 0.07290033 -0.13349937 0.20315729 0.9552947 0.75056386 0.48895407 -0.010068247
-0.43276775 0.087021954 -0.56510115 -0.24573049 -0.37898466 -0.58529127 0.17032267 0.16221528
-0.27072373 -0.3360294 -0.14657857 0.18814066 -1.4085529 -1.5942721 0.16944978 0.40768537
0.26909608 -0.009443629 0.16975413 -1.8379402 -0.243509 -0.27154362 -0.07162252 0.7145267
-0.16491005 0.53169924 0.252306 0.3749251 -0.42772052 0.48454803 0.16860676 0.041503757
0.060820814 0.17977144 0.4025524 -0.21257634 -0.07913735 -0.24767107 -0.68290144 0.123626955
-0.2756813 -0.030570207 -0.010921798 -0.7266136 0.1420387 0.56181633 0.26670608 0.24266714
0.30485046 0.34367767 -1.3636428 0.17380121 0.54404956 -0.06571296 -0.0017693894 0.6642594
0.28344807 0.13066298 -0.59219587 0.5284917 0.31291372 0.88121945 0.9988201 0.84121704
0.5184727 0.094980314 0.7629074 -0.2274403 0.6765649 0.28605965 -0.42072552 0.44183874
0.063656114 0.13391711 0.044541217 0.64546037 0.09812991 0.22298025 0.61059254 0.09867008

arith.constant2 f4 [5]
00000000: 65ee 163c aa9c 92be 1ab1 5e3e 714a 323e
00000010: 9dc5 3bbd
0.009212111 -0.2863515 0.21747246 0.1741121 -0.045842756

arith.constant3 f4 [10]
00000000: 8c40 8f3e d20e c93e de52 d73e 5edd 503e
00000010: 20e3 f1be dc0e c43e 8d65 693f 2aa8 1a3e
00000020: 207d 3e3e 83d7 a9be
0.27978933 0.3926912 0.4205541 0.20396945 -0.47243595 0.38292587 0.9117058 0.15103212
0.18602419 -0.33172235

sequential_8_1/dense_24_1/BiasAdd/ReadVariableOp f4 [20]
00000000: 3b39 fdbe 9c95 10be 23ee 57bf 51a5 4dbf
00000010: d7cf cbbe 0281 57bf 30b7 4fbf cbf5 dbbd
00000020: 8ce7 57bf 7484 7cbf 89d5 973d 5732 9e3e
00000030: 4922 debe 40d3 27bf 068c 68be 3dd8 66be
00000040: 74e9 18bd 3315 0dbf 5c76 373e b8d2 c1be
-0.49457726 -0.14119571 -0.8434774 -0.8033038 -0.39807007 -0.84181225 -0.81138897 -0.10740241
-0.8433769 -0.9863961 0.074137755 0.3089778 -0.43385532 -0.65556717 -0.22709665 -0.22543426
-0.037332013 -0.5511047 0.17916244 -0.37856078

sequential_8_1/dense_24_1/MatMul f4 [20, 42]
00000000: 604b 9c3c e85c 893e 646c 223f 1a17 003f
00000010: 0650 093f 75bf 58bc 5d77 1c3f e561 8abd
00000020: 02a5 833f 1bd8 f2bd 7222 02be 095c 653d
00000030: c3f4 89bd 518b 963d afa1 abbd cbde 363c
00000040: 3c4b 75bd 1a9f 89bd 1cb4 fdbd 59bd a63c
00000050: 2c0d 9bbd 675e 3ebc bb13 0ebe e10c 70bd
00000060: 7418 91bd 540b 7fbd 5bfc 833c eefa 8bbc
00000070: 429b 0bbe 4c51 603b 884a bfbe 5cd4 bbbc
00000080: d1c3 1abf c360 7dbd 492c 733e c83f a53d
00000090: 9759 05be 2888 383d 6569 f6be 66fa 203d
000000a0: c97b 13bf 0bde 7a3d 661b 8bbd 90a3 f43c
000000b0: b469 1a3f 7d78 2d3f 0c47 dc3e 953a c63e
000000c0: 72b2 043f 8ad7 c13e 611a 0a3f 915c 073f
000000d0: 4ba2 17be 0c96 873e 3dff a9bc ffe2 063e
000000e0: 9d5a 563c 49f9 72be e028 c3bb e5e9 5fbf
000000f0: ef13 1dbe 61ef 953e f7d3 0ebe ffbf ca3d
00000100: 7adf 59bc 1b95 9fbd 25d8 cc3c 7c91 05bf
00000110: 45aa 673d 2ff5 8c3e ccbf b3be 8d0b 183e
00000120: 8757 bfbe fb3e 97bc 275b 65be 8ed9 a2be
00000130: 8726 ac3e 9ba4 ca3e 0f4e 82be 6c8c 663e
00000140: 3632 adbe 9daa 023e af9c 09bf 6c37 de3c
00000150: 004d 44bd 9f72 1fbe 8858 243f 2f5a b7be
00000160: 2de3 6e3e 19ee a3be 03ee 003f b8d2 f1be
00000170: 25a7 bc3e 3a35 14be 2fad 84bd 914b 51bd
00000180: 64cd a63d 0eb6 04bd 428f bfbd 88ab 5f3e
00000190: e4c5 1cbe 3cdd a23e 58f0 8e3d 09cb d6bd
000001a0: c843 cd3d ca28 30be 110f 263e e2fa d2bd
000001b0: d54d 803d 8c4a 57be e84a 9fbc 0d09 abbd
000001c0: 8be8 ea3d 1958 3fbd a93d 013d b815 f6bd
000001d0: c4db f93d 0431 5abe 9255 833c b058 1cbe
000001e0: d478 af3d 6707 c13c 39df f83d 548c 0f3e
000001f0: 6d4e fcbd 70f3 e93d 802b 2b3d 2a19 373e
00000200: da28 453f 0669 503e baad ad3e 43d1 ab3e
00000210: 5187 9a3e 81c3 c6bd e9b3 d53e a69e 44be
00000220: 29b5 bf3e fd08 2f3f 7e95 233d 703b 413e
00000230: 981f 31be 5fde f13c 20ee 5dbe 2658 f7bd
00000240: 1220 d83e bd88 d53e adcd e13c 5982 673d
00000250: 7c7d dbbd e236 953c 3776 d4bd 490a 4ebd
00000260: 688a dd3e 45bd fe3d 9a60 0a3e 65aa 83bd
00000270: 7731 b4bd c03a 2fbd 9dfd 98bc 4460 b0bd
00000280: baba c63e a0ed 28bd 174a b83e cd13 c2bd
00000290: bff7 44be daa5 163c 83e4 c7be 315b 15bc
000002a0: c0c3 8d3b 80bc b6bb ee32 a7bd 2499 803e
000002b0: 4684 57be 5c56 103d 1fc5 a9be 305a 7cbd
000002c0: de09 2fbf 9dbe be3d 515a 86bb 498b 7e3e
000002d0: 934f a8bd a279 093e d4a5 a13d c07a 88bd
000002e0: 1c60 c93d fe1c c1be 1604 62bc 71e2 8c3e
000002f0: 8802 b0bd 4d81 7e3d c0c6 663e d97d 96bd
00000300: 3744 193f 9eb6 e1bd 9b26 40be 594b 913e
00000310: d4fe acbd e4af d43c 4ab7 dc3e 6624 e0bd
00000320: 422b 5b3f 998d 47be 6e2f 2bbe d2c4 a73e
00000330: adba d7bd d04a 083e 8b97 9d3d 3483 413d
00000340: 4ba4 8a3e 847d f33b 2856 223d 80f4 483e
00000350: 9194 04bf 02cb 1d3e c54c 99be d1d3 8abe
00000360: ca4d 48be e6c7 81be aac6 96be 1bc6 b0be
00000370: 695b 8fbd d094 cc3c 5ec5 8e3a fbc4 233d
00000380: c4e3 3e3e 2a43 123e b728 653e 56bb 353e
00000390: 1a0c 91bc dd86 3ebd ad09 1f3d 791e d0bd
000003a0: 2f38 bf3d b2f0 e63c 70e1 823d c672 2c3e
000003b0: 97bb bdbd 63a7 73be d66a a4bc e29c c7bd
000003c0: 17d2 a2bd 7d04 41bc c1c5 023d 4c7f 2e3e
000003d0: 4617 8fbe 85fc 50be 374a 8cbe 3624 aabe
000003e0: d72b 6dbe 3360 03bf 3af0 e3bd bb1a a8be
000003f0: e1c2 86be 8223 1abe 2922 30be cbac 043f
0.01907891 0.26828694 0.6344664 0.5003525 0.5363773 -0.013229241 0.61119634 -0.06756953
1.0284731 -0.11857625 -0.12708452 0.055995975 -0.06736138 0.07350791 -0.08380448 0.011161516
-0.059886202 -0.06719799 -0.12387869 0.02035396 -0.07570872 -0.011619187 -0.13874714 -0.058606032
-0.07084742 -0.062266663 0.016111543 -0.017087426 -0.13633445 0.0034228144 -0.3736155 -0.02292841
-0.6045504 -0.061859857 0.23747362 0.08068806 -0.13022457 0.045051724 -0.48127285 0.0393013
-0.57610756 0.061246913 -0.06792335 0.029863149 0.6031754 0.67761976 0.43022954 0.3871657
0.51834786 0.37859756 0.539465 0.5287562 -0.14808004 0.26481664 -0.02075159 0.1317253
0.013083127 -0.23727907 -0.0059558004 -0.8746627 -0.15339635 0.29284194 -0.13948046 0.098999016
-0.01329791 -0.077921115 0.02500541 -0.52175117 0.056558866 0.2753081 -0.35107267 0.14848156
-0.37371466 -0.018462649 -0.22398053 -0.31806606 0.33623144 0.3957871 -0.2545018 0.22514504
-0.3382737 0.12760396 -0.53754705 0.027126037 -0.047924995 -0.15571068 0.6419759 -0.35810992
0.23328848 -0.32017592 0.5036318 -0.47231078 0.3684627 -0.1447343 -0.06478345 -0.051097456
0.08144644 -0.032400183 -0.09353496 0.21842778 -0.15309864 0.31809413 0.06979436 -0.10487945
0.10022694 -0.1720306 0.16216685 -0.10301758 0.06264845 -0.21024531 -0.019444898 -0.08351336
0.11470135 -0.046714876 0.031552944 -0.12015861 0.1220012 -0.2130776 0.016032014 -0.15268207
0.08567968 0.0235631 0.12151951 0.14018375 -0.12319646 0.11423385 0.04178953 0.17880693
0.7701546 0.20352563 0.33921605 0.33558092 0.30181363 -0.09705258 0.41738823 -0.19201145
0.37442902 0.6837309 0.03993749 0.1887033 -0.17297208 0.02952498 -0.21672869 -0.1207736
0.42211968 0.41705886 0.027563894 0.056520794 -0.107172936 0.018214647 -0.1037411 -0.050302777
0.43269658 0.12438444 0.13513413 -0.064289846 -0.08798497 -0.042780638 -0.01867562 -0.08612111
0.38814336 -0.04124224 0.35994026 -0.09476433 -0.19235133 0.0091948155 -0.39041528 -0.00911598
0.0043263137 -0.00557667 -0.08164011 0.25116837 -0.21046552 0.03523861 -0.33158204 -0.061609447
-0.6837443 0.093137 -0.004100122 0.2485782 -0.082183026 0.13425305 0.07892957 -0.06664038
0.098327845 -0.37717432 -0.0137949195 0.2751651 -0.08594233 0.06213503 0.22536755 -0.07348222
0.5986971 -0.110211596 -0.18764727 0.28377798 -0.08447042 0.025962777 0.43108588 -0.109444425
0.8561288 -0.19487609 -0.16717312 0.3276735 -0.105336525 0.13309789 0.0769492 0.047244266
0.2707847 0.007430734 0.039632946 0.1962452 -0.51789194 0.15409473 -0.29941383 -0.27114728
-0.19560924 -0.25347823 -0.29448444 -0.34526142 -0.06999857 0.024973303 0.001089256 0.039982777
0.18641573 0.14283434 0.22378813 0.17747244 -0.017705966 -0.046515334 0.038827587 -0.10162062
0.09336888 0.028190944 0.06390655 0.16840658 -0.092642955 -0.23794322 -0.020070475 -0.0974672
-0.07950228 -0.011780855 0.031926874 0.17040747 -0.27947444 -0.20408829 -0.2740037 -0.33230752
-0.23161255 -0.51318663 -0.11129804 -0.32832894 -0.26320556 -0.15052608 -0.17200531 0.5182616
