hand-gesture-recognition-mediapipe/model/keypoint_classifier/keypoint_classifier.tflite (tflite, 6676 bytes, 6 tensors)

arith.constant f4 [5, 10]
1.0834457 -0.5523314 -0.15583424 0.6962338 -0.9276803 -1.0662118 0.6256027 -0.59410447
0.8775068 0.63588357 0.47853872 0.38172168 0.6987417 0.8144972 0.38909858 0.5285179
-0.37260383 -0.13544145 -0.41285023 0.4220732 -1.0316027 -0.062272653 0.03866767 0.59329545
-0.64440566 0.026841288 0.9383201 1.2497567 -0.21521871 -1.2107491 -0.87758017 -2.3897097
0.457173 -2.5485399 0.5923819 -0.6521143 -1.2456609 -0.5745315 0.48933655 0.9711955
-0.83803076 0.95988965 -0.90052503 -0.083378665 0.75463945 -0.42550132 -0.66129714 -0.2871056
0.49117625 0.19909476
00000000: 59ae 8a3f 9765 0dbf 0393 1fbe 613c 323f
00000010: 757c 6dbf a179 88bf 8027 203f 3b17 18bf
00000020: 49a4 603f 44c9 223f 0703 f53e 0671 c33e
00000030: bce0 323f e382 503f ee37 c73e f34c 073f
00000040: eec5 bebe 2ab1 0abe 1b61 d3be fa19 d83e
00000050: 8f0b 84bf 9c11 7fbd fe61 1e3d 36e2 173f
00000060: c5f7 24bf 43e2 db3c bf35 703f 07f8 9f3f
00000070: 4b62 5cbe d4f9 9abf 18a9 60bf 01f1 18c0
00000080: 9412 ea3e 471b 23c0 57a6 173f f6f0 26bf
00000090: d171 9fbf 7f14 13bf 528a fa3e 45a0 783f
000000a0: 2f89 56bf 54bb 753f cf88 66bf 6fc2 aabd
000000b0: 0d30 413f 4fdb d9be c54a 29bf 81ff 92be
000000c0: 747b fb3e 7fdf 4b3e

arith.constant1 f4 [10, 20]
0.43267244 -0.24026011 0.5424774 -0.12955588 0.055600293 -0.31054416 0.45309803 1.313814
-0.074699886 -0.059889454 -0.13160719 0.60426944 -0.014943374 0.6169272 0.40965495 0.09347559
1.0582044 0.00082133745 0.30409297 -0.06562633 0.9270797 0.11649681 0.008989727 0.7495061
0.51048326 0.43205675 0.07505324 0.21841155 1.1421956 0.059117246 0.6458541 0.8908695
1.3401636 -0.038054254 -0.25050446 -0.08033962 -0.07923243 -0.00055204966 0.6660886 0.19231002
0.32311347 -0.3382027 0.15821974 0.12370979 -0.91947144 0.4912941 0.40824 0.4927616
0.34237105 -0.3250015 -0.08698825 0.5325586 0.33301494 0.41383314 0.14173459 -0.3756687
0.061194893 -0.58889186 -0.1922152 -0.5261408 0.38027698 0.016698003 1.3670819 0.5830243
1.9387523 -0.35405058 0.83962315 0.68844664 0.53634596 0.0401357 0.25068802 0.5288526
0.19682345 1.0839261 -0.07038985 1.769523 1.0386367 -0.024110021 0.31510153 1.402416
0.7788585 0.20662333 -0.096524015 0.07280036 -0.5357498 0.7182665 -0.30551198 -0.023307618
-0.35705554 0.10699027 0.89616513 0.1644662 -0.53366005 -0.13027036 -0.18902816 -0.73270184
-0.16792123 0.24627839 0.121625826 -0.64520526 -0.067217685 -0.18335399 0.01004055 -0.060853895
0.053918943 0.5399246 0.34007663 -0.16167186 0.6530186 -0.09560222 0.8915525 0.54096454
-0.25442463 -0.011989334 -0.23676714 0.55603147 -0.20294061 -0.5106056 -0.33681184 -0.49384636
0.023643592 -0.28717995 0.5284696 0.4302413 0.5963975 -0.46812877 0.45256326 -0.3364107
-0.30168724 -0.12449266 -0.2897422 -0.15123393 -0.17315029 0.6258426 -0.1143321 0.08949749
0.0012769818 -0.17544013 0.039610226 1.0592635 -0.049569864 -1.0177686 0.15703791 -0.019205868
0.48282048 -0.079695426 0.2041263 -0.484771 -0.029559799 -0.9110908 0.31303287 -0.16772963
0.24516669 -0.42289385 -1.1949898 -0.49446234 -0.90310496 -1.8100575 -0.48413825 0.21901073
0.38297883 0.9013758 0.36367285 0.49011865 0.13772751 -0.16757567 0.059528053 0.36057052
-0.6464402 0.38133246 0.044651847 -0.109083325 -0.05177181 0.5257652 0.17890282 -0.034555003
0.6040187 0.81097376 0.7711835 0.25440365 -0.90580916 0.98194003 -0.61967844 0.057059363
0.2063028 0.6776694 0.14617504 0.5899902 0.690921 0.99064606 0.23793405 0.2728083
0.38259038 0.22791989 0.57186383 0.50267345 0.5384336 0.48127735 0.4490421 -0.11199998
00000000: 3e87 dd3e bf06 76be cddf 0a3f 4caa 04be
00000010: 22bd 633d a5ff 9ebe 77fc e73e 0f2b a83f
00000020: 41fc 98bd a54e 75bd 09c4 06be 67b1 1a3f
00000030: 0ed5 74bc f1ee 1d3f 4bbe d13e 2170 bf3d
00000040: 3e73 873f 064f 573a 13b2 9b3e 1967 86bd
00000050: 1855 6d3f e195 ee3d a649 133c a2df 3f3f
00000060: 08af 023f 8b36 dd3e 83b5 993d 47a7 5f3e
00000070: 7733 923f ed24 723d b256 253f 0610 643f
00000080: 7b8a ab3f c7de 1bbd 1f42 80be 1989 a4bd
00000090: 9d44 a2bd 6db7 10ba c884 2a3f ebec 443e
000000a0: 216f a53e e728 adbe 5b04 223e 8f5b fd3d
000000b0: 7b62 6bbf e68a fb3e d504 d13e 404b fc3e
000000c0: 424b af3e 9966 a6be e526 b2bd c355 083f
000000d0: ef80 aa3e f0e1 d33e df22 113e a657 c0be
000000e0: 7fa7 7a3d 9ec1 16bf 10d4 44be 2ab1 06bf
000000f0: aab3 c23e 40ca 883c 8afc ae3f 1541 153f
00000100: 0929 f83f 1e46 b5be 8bf1 563f 0a3e 303f
00000110: f84d 093f 5565 243d 2e5a 803e e262 073f
00000120: 168c 493e 17be 8a3f 8e28 90bd bb7f e23f
00000130: 0cf2 843f 6182 c5bc fd54 a13e 5e82 b33f
00000140: 4563 473f 1195 533e 62ae c5bd 5b18 953d
00000150: e626 09bf 50e0 373f 116c 9cbe 9eef bebc
00000160: fccf b6be b71d db3d 146b 653f d469 283e
00000170: f29d 08bf 9865 05be 9990 41be 5992 3bbf
00000180: 8bf3 2bbe 6730 7c3e f616 f93d 2c2c 25bf
00000190: 6da9 89bd 26c1 3bbe 1e81 243c ef41 79bd
000001a0: 1cda 5c3d 8038 0a3f 861e ae3e 4f8d 25be
000001b0: 3a2c 273f 19cb c3bd c93c 643f a77c 0a3f
000001c0: f243 82be e96e 44bc 1673 72be 1458 0e3f
000001d0: aacf 4fbe 0cb7 02bf 9a72 acbe 6ed9 fcbe
000001e0: 35b0 c13c 4009 93be c949 073f 9648 dc3e
000001f0: 82ad 183f 93ae efbe 5fb6 e73e 063e acbe
00000200: c076 9abe 02f6 febd 1759 94be 11dd 1abe
00000210: 4f4e 31be 3837 203f f326 eabd 764a b73d
00000220: 6660 a73a 94a6 33be 553e 223d f295 873f
00000230: c509 4bbd 3e46 82bf 8cce 203e a055 9dbc
00000240: 3f34 f73e 5b37 a3bd 7c06 513e e833 f8be
00000250: 6427 f2bc 3f3d 69bf d845 a03e 51c1 2bbe
00000260: fa0c 7b3e 8b85 d8be 6df5 98bf 2b2a fdbe
00000270: e331 67bf f7af e7bf f8e0 f7be 5944 603e
00000280: cd15 c43e 90c0 663f 5433 ba3e d5f0 fa3e
00000290: 7108 0d3e f598 2bbe b0d3 733d b39c b83e
000002a0: 1b7d 25bf 023e c33e dbe4 363d 1467 dfbd
000002b0: ad0e 54bd 8c98 063f 4d32 373e 8c89 0dbd
000002c0: f8a0 1a3f fa9b 4f3f 486c 453f 3241 823e
000002d0: 1ce3 67bf 6c60 7b3f 3fa3 1ebf 14b7 693d
000002e0: 0b41 533e be7b 2d3f e9ae 153e 9909 173f
000002f0: 33e0 303f fb9a 7d3f fca4 733e 88ad 8b3e
00000300: e3e2 c33e d563 693e ab65 123f 35af 003f
00000310: c9d6 093f fc69 f63e d9e8 e53e 3f60 e5bd

sequential_3_1/dense_10_1/BiasAdd/ReadVariableOp f4 [10]
-0.31715658 0.13086016 0.12094966 0.15630029 0.29599103 0.3977561 0.51380277 0.714126
-0.053249087 0.23771942
00000000: 5962 a2be 3500 063e 75b4 f73d 2f0d 203e
00000010: 238c 973e b0a6 cb3e 9488 033f f6d0 363f
00000020: b71b 5abd b86c 733e

sequential_3_1/dense_11_1/BiasAdd/ReadVariableOp f4 [5]
-0.23255806 -0.49303067 0.54673815 0.8547327 -0.33143193
00000000: b323 6ebe 846e fcbe 08f7 0b3f c3cf 5a3f
00000010: 72b1 a9be

sequential_3_1/dense_9_1/BiasAdd/ReadVariableOp f4 [20]
-0.7052798 -0.6951693 0.013040495 0.43042067 0.120627865 -0.79669666 -0.029383767 -0.62902474
-0.67571425 -0.5119443 -0.79202706 -0.92141795 -0.8368692 -0.3352209 -0.2828138 -0.49854356
-0.48795745 -0.46105003 -0.71573216 -0.13832822
00000000: 388d 34bf 9ef6 31bf cda7 553c 1960 dc3e
00000010: be0b f73d 50f4 4bbf 3ab6 f0bc c407 21bf
00000020: 9cfb 2cbf c80e 03bf 49c2 4abf 0ce2 6bbf
00000030: 0f3d 56bf 13a2 abbe f8cc 90be 1a41 ffbe
00000040: 8fd5 f9be c00e ecbe 393a 37bf eaa5 0dbe

sequential_3_1/dense_9_1/MatMul f4 [20, 42]
-0.3030116 -0.18665782 0.6178252 -0.7768467 0.38185215 -0.5118097 0.044267736 -0.11108456
-0.22810955 -0.38836592 0.56848437 -0.25685084 0.12886116 -0.050049968 -0.09014402 0.10260623
-0.21585406 0.064502254 0.40726435 -0.25360233 0.29080337 -0.065651745 -0.040644236 0.17869896
-0.07093575 0.22900526 0.17484033 -0.30758741 0.20595136 -0.12543796 -0.0043753646 0.14605048
-0.075104214 0.24138361 -0.039214633 -0.3205031 -0.008893931 -0.2292821 -0.026497671 -0.036347218
0.0680779 0.08675108 0.0921264 0.3090511 -0.074821845 0.39342797 0.039990887 0.18908453
0.0740462 0.14228606 0.14189327 0.14139552 -0.0033857299 0.041945416 0.03386557 0.09005679
-0.007945049 0.050681446 0.012792658 -0.034157176 0.10444312 0.078488216 0.035909962 0.06620397
-0.14848846 -0.18835145 -0.1199515 -0.0889809 0.27901658 0.0778944 0.04589285 -0.0034901751
-0.26897794 -0.2562554 -0.37675267 -0.48746222 0.37945136 0.110368244 0.034609087 0.0056697917
-0.3866326 -0.56193256 -0.85996246 -0.63683534 0.10430801 0.2713579 -0.25028932 -0.25807804
-0.18849574 -0.14420082 -0.16740824 -0.23173991 -0.15794182 -0.22156128 -0.17727628 0.16996086
-0.14650625 -0.06662175 -0.17670466 -0.20071322 -0.17690648 -0.35722053 -0.17422058 0.1776179
-0.10889324 0.032836802 0.17490946 0.26788196 0.3142012 0.5219255 -0.21974753 0.08282191
0.008393445 0.104949616 0.42813098 0.36916786 0.7118227 0.93941474 -0.14684224 0.066461615
-0.109071776 0.043485448 0.071021035 0.18669364 0.19965038 0.2745875 0.17421633 -0.22721007
0.52486074 0.4144937 0.2717903 0.09920306 0.22502886 -0.045409795 0.22566752 0.17364252
-0.089111656 0.17020293 0.057431463 0.052806266 0.09583991 -0.4021555 0.11421767 -1.0295919
-0.06317589 0.1443201 -0.06053269 0.048018314 0.10475248 0.038670413 0.16788064 0.07451127
-0.32968023 0.10640567 -0.44249642 0.048142806 -0.09698526 0.05840006 -0.0025179326 0.06752661
-0.27946422 0.15232567 -0.34737724 0.083441444 -0.4262217 0.024236532 -0.20016088 0.022305671
0.23304194 -0.20170313 -0.1104852 0.60346264 -0.06801452 0.41733524 0.002839274 0.3636485
0.03154772 0.30388594 -0.11211946 0.04757147 -0.042025585 0.071527265 0.004028395 0.060422167
0.0073710512 -1.1395785 -0.077031076 0.045422234 -0.007649906 0.09197082 0.020332176 0.06706325
0.04548739 0.037188213 0.021691458 0.08072703 0.021289779 0.10141913 0.0041492935 0.108318105
0.0065359105 0.026611717 0.17940117 0.074127175 -0.01431561 0.09507666 -0.059023418 0.09169086
-0.024201773 0.08205848 -0.051166594 -0.06605111 -0.7120637 -0.5096162 -0.26274475 -0.19871469
-0.4611857 -0.39716533 -0.025166461 -0.11858006 -0.14270246 0.042337734 -0.0064888126 0.00422324
0.063661 0.15396002 0.14044854 0.044962324 -0.12317784 0.018298235 -0.07561302 -0.06892544
0.037472554 -0.0012186463 0.0066640587 0.06670167 -0.0983793 0.0037221282 -0.026723756 -0.120080456
0.03942103 -0.00793243 0.051605746 0.09007074 -0.09091445 -0.10587419 -0.09447003 -0.45707148
-0.08637518 -0.09737945 -0.1039974 0.026985645 0.07992619 0.07067591 -0.39839163 -1.3361812
00000000: 5624 9bbe 3a23 3fbe cb29 1e3f 6ddf 46bf
00000010: 2082 c33e f605 03bf 1652 353d 4d80 e3bd
00000020: 8d95 69be e6d7 c6be 3188 113f f481 83be
00000030: 2ef4 033e 3201 4dbd 6e9d b8bd 3723 d23d
00000040: d908 5dbe c219 843d f484 d03e 2ad8 81be
00000050: 2ee4 943e 6c74 86bd 927a 26bd dcfc 363e
00000060: c346 91bd 5b80 6a3e 5809 333e 197c 9dbe
00000070: eae4 523e cf72 00be 385f 8fbb 428e 153e
00000080: 3dd0 99bd 442d 773e 869f 20bd fb18 a4be
00000090: dab7 11bc edc8 6abe a511 d9bc d2e0 14bd
000000a0: 6d6c 8b3d 8daa b13d c4ac bc3d f23b 9e3e
000000b0: 323c 99bd 646f c93e 7ccd 233d 609f 413e
000000c0: 89a5 973d 70b3 113e 784c 113e fdc9 103e
000000d0: 1fe3 5dbb f5ce 2b3d a0b6 0a3d b26f b83d
000000e0: f32b 02bc 5997 4f3d 4c98 513c 65e8 0bbd
000000f0: 46e6 d53d 6ebe a03d 5316 133d f295 873d
00000100: 5c0d 18be 34df 40be 22a9 f5bd 9e3b b6bd
00000110: 43db 8e3e 1987 9f3d 24fa 3b3d 6cbb 64bb
00000120: 7ab7 89be e833 83be bae5 c0be a694 f9be
00000130: 7347 c23e bf08 e23d 42c2 0d3d a9c9 b93b
00000140: b5f4 c5be d0da 0fbf 8026 5cbf a407 23bf
00000150: 709f d53d 6cef 8a3e ec25 80be ce22 84be
00000160: 0705 41be 61a9 13be 116d 2bbe 3a4d 6dbe
00000170: 80bb 21be f6e0 62be ea87 35be 380a 2e3e
00000180: bc05 16be fc70 88bd 11f2 34be c487 4dbe
00000190: f926 35be 9ce5 b6be e166 32be 77e1 353e
000001a0: 6b03 dfbd e27f 063d 771b 333e d327 893e
000001b0: fbde a03e e99c 053f 7f05 61be 899e a93d
000001c0: a984 093c d3ef d63d fc33 db3e 9203 bd3e
000001d0: 033a 363f 7c7d 703f d05d 16be 071d 883d
000001e0: 0661 dfbd cc1d 323d 7a73 913d 9e2c 3f3e
000001f0: 2671 4c3e bc96 8c3e c465 323e c2a9 68be
00000200: 465d 063f 8538 d43e 1928 8b3e f92a cb3d
00000210: f76d 663e 9fff 39bd 6315 673e 58cf 313e
00000220: 2c80 b6bd ad49 2e3e 413d 6b3d 624b 583d
00000230: b747 c43d 53e7 cdbe f4ea e93d abc9 83bf
00000240: 5c62 81bd a6c8 133e 20f1 77bd daae 443d
00000250: 7888 d63d de64 1e3d e7e8 2b3e 5d99 983d
00000260: d9cb a8be 37eb d93d e48e e2be 6431 453d
00000270: 35a0 c6bd e734 6f3d e603 25bb 644b 8a3d
00000280: ef15 8fbe 43fb 1b3e 6edb b1be 59e3 aa3d
00000290: bb39 dabe b18b c63c f9f6 4cbe 62ba b63c
000002a0: 8ca2 6e3e 448b 4ebe 1146 e2bd 877c 1a3f
000002b0: 324b 8bbd f7ac d53e 1d13 3a3b 2330 ba3e
000002c0: 2f38 013d f096 9b3e e39e e5bd 4dda 423d
000002d0: 0523 2cbd e37c 923d a000 843b 3c7d 773d
000002e0: dc88 f13b b5dd 91bf 78c2 9dbd aa0c 3a3d
000002f0: 10ac fabb 335b bc3d aa8f a63c 7558 893d
00000300: fc50 3a3d ab52 183d 49b2 b13c 3754 a53d
00000310: e767 ae3c d5b4 cf3d ccf6 873b e2d5 dd3d
00000320: 312b d63b d100 da3c f1b4 373e fdcf 973d
00000330: 058c 6abc 8db7 c23d 8ac2 71bd 6bc8 bb3d
00000340: cc42 c6bc 470e a83d 1094 51bd ce45 87bd
00000350: cf49 36bf 3576 02bf 7b86 86be dd7b 4bbe
00000360: 8820 ecbe 4159 cbbe e529 cebc 1ada f2bd
00000370: 9820 12be 556a 2d3d 1ba0 d4bb 1b63 8a3b
00000380: b360 823d b2a7 1d3e bed1 0f3e 6a2a 383d
00000390: aa44 fcbd 2ee6 953c 00db 9abd c828 8dbd
000003a0: d27c 193d fcba 9fba 2d5e da3b e39a 883d
000003b0: 167b c9bd f3ee 733b c7eb dabc beec f5bd
000003c0: f277 213d 06f7 01bc 8c60 533d 0277 b83d
000003d0: 5b31 babd 91d4 d8bd 8179 c1bd 4605 eabe
000003e0: 78e5 b0bd e16e c7bd 97fc d4bd 0011 dd3c
000003f0: 58b0 a33d 88be 903d fdf9 cbbe fc07 abbf
